Found 11062 images belonging to 14 classes.
Found 354 images belonging to 14 classes.
2019-12-05 21:01:35.335220: I tensorflow/core/platform/cpu_feature_guard.cc:142] Your CPU supports instructions that this TensorFlow binary was not compiled to use: AVX2
Model: "sequential"
_________________________________________________________________
Layer (type)                 Output Shape              Param #
=================================================================
conv2d (Conv2D)              (None, 30, 30, 32)        896
_________________________________________________________________
max_pooling2d (MaxPooling2D) (None, 15, 15, 32)        0
_________________________________________________________________
conv2d_1 (Conv2D)            (None, 13, 13, 64)        18496
_________________________________________________________________
max_pooling2d_1 (MaxPooling2 (None, 6, 6, 64)          0
_________________________________________________________________
conv2d_2 (Conv2D)            (None, 4, 4, 128)         73856
_________________________________________________________________
flatten (Flatten)            (None, 2048)              0
_________________________________________________________________
dense (Dense)                (None, 64)                131136
_________________________________________________________________
dense_1 (Dense)              (None, 14)                910
=================================================================
Total params: 225,294
Trainable params: 225,294
Non-trainable params: 0
_________________________________________________________________
Train on 11062 samples, validate on 354 samples
Epoch 1/20
11062/11062 [==============================] - 9s 805us/sample - loss: 0.9381 - accuracy: 0.7188 - val_loss: 0.1897 - val_accuracy: 0.9350
…
 'signalAhead' 'speedLimit25' 'speedLimit30' 'speedLimit35' 'speedLimit45'
 'stopAhead' 'Stopsign' 'Yield']
2.0.0
Found 33186 images belonging to 14 classes.
Found 354 images belonging to 14 classes.
2019-12-05 21:46:59.687218: I tensorflow/core/platform/cpu_feature_guard.cc:142] Your CPU supports instructions that this TensorFlow binary was not compiled to use: AVX2
Model: "sequential"
_________________________________________________________________
Layer (type)                 Output Shape              Param #
=================================================================
conv2d (Conv2D)              (None, 30, 30, 32)        896
_________________________________________________________________
max_pooling2d (MaxPooling2D) (None, 15, 15, 32)        0
_________________________________________________________________
conv2d_1 (Conv2D)            (None, 13, 13, 64)        18496
_________________________________________________________________
max_pooling2d_1 (MaxPooling2 (None, 6, 6, 64)          0
_________________________________________________________________
conv2d_2 (Conv2D)            (None, 4, 4, 64)          36928
_________________________________________________________________
flatten (Flatten)            (None, 1024)              0
_________________________________________________________________
dense (Dense)                (None, 64)                65600
_________________________________________________________________
dense_1 (Dense)              (None, 14)                910
=================================================================
Total params: 122,830
Trainable params: 122,830
Non-trainable params: 0
_________________________________________________________________
Train on 33186 samples, validate on 354 samples
Epoch 1/10
33186/33186 [==============================] - 26s 792us/sample - loss: 1.2676 - accuracy: 0.5849 - val_loss: 0.3259 - val_accuracy: 0.9153
…
